PPO/PPO.pth (torch, 34633 bytes, 11 tensors)

actor.0.weight f4 [64, 22]
0.15147513 0.016652215 -0.15893714 0.13345951 0.0039810864 -0.19937134 -0.01673632 -0.16357918
-0.08078613 -0.15789089 0.178134 0.031807363 -0.016839344 -0.013462868 0.20182464 -0.2017072
0.004673798 -0.1790071 -0.17941798 -0.09527404 -0.090679154 -0.12724657 -0.14507169 -0.07211103
-0.018530125 0.18466938 0.13581449 0.008419658 -0.20966367 0.16993992 -0.17272353 0.1422366
-0.16514336 -0.019408677 -0.2075579 0.052243523 -0.13875431 0.017089004 0.15810907 -0.06321502
0.20201515 -0.17230488 0.19582015 -0.20111915 0.033984184 0.09826502 0.12877873 0.061698552
0.11220888 -0.076143056 -0.021998007 -0.027728418 -0.08736743 -0.03098697 -0.109388754 0.20578825
-0.024838839 -0.0440687 0.17125624 -0.20603624 0.15109946 -0.061086163 -0.09957548 -0.019716544
0.17669325 0.010382976 0.21138336 0.097423844 0.11501357 0.111548655 0.052274946 -0.17512257
-0.062041588 0.0557064 -0.038410712 -0.08652261 -0.16136436 -0.007755134 -0.08559655 -0.09417192
0.12609178 0.021245249 0.057338636 -0.037389223 -0.11936024 0.022467833 -0.06165944 0.046970863
-0.0758347 -0.0774761 -0.09773337 0.04573777 -0.07722127 0.028907297 0.17872429 0.029559053
0.013427183 -0.018948179 0.13745062 0.051636204 -0.004864327 0.10500834 0.10705044 0.14320284
0.07081705 0.061609168 0.21378122 -0.062247347 0.02234024 0.18871722 -0.15443927 0.08769907
0.13343747 -0.18522693 -0.21145806 -0.10857732 0.04786757 0.015190697 -0.0681002 -0.10878698
-0.09223891 -0.025184195 -0.0617814 0.086325735 0.085431285 -0.20357965 -0.19569819 -0.029308291
0.0031925235 0.13705431 0.17905204 0.1333128 -0.20046724 -0.1363374 -0.07502193 -0.08318304
-0.19471534 -0.13851646 -0.08585546 0.16754891 -0.120212495 0.1422023 -0.07033993 -0.12735932
0.14346007 -0.054851033 -0.12894833 0.10453015 0.09411124 -0.01626442 -0.02815803 0.029421378
0.03533444 0.09811067 -0.11484873 -0.1238257 0.07760371 0.11259041 -0.073532626 0.17957272
-0.11098328 -0.12596892 0.13703988 0.11435014 0.14964966 0.003832802 0.1871598 0.18466628
0.07295504 -0.09838458 -0.20834607 -0.16880104 -0.092429414 -0.07533012 -0.06959104 0.11231323
-0.21000206 0.13326111 0.074894354 0.031885352 -0.2075672 0.08030023 -0.16193543 0.06079664
0.12732032 -0.19247107 -0.20388845 0.12829868 -0.067431025 -0.16664468 -0.1903612 -0.19728446
-0.04183594 0.13723522 0.144189 -0.19178328 0.03625423 -0.13633142 -0.1302937 0.116395086
-0.12771775 0.20669855 -0.021233715 0.005868414 -0.09527644 -0.09926931 -0.098247156 0.14672285
-0.13004954 0.095190346 -0.12514392 0.076870464 -0.14762187 0.1285652 -0.055837717 -0.005201881
0.17024438 -0.124375924 -0.09086336 0.20935662 -0.055436216 -0.20867299 -0.14889832 0.11833951
0.16816123 0.042331763 -0.07012826 -0.03532229 0.13477826 0.1579657 0.18342437 0.09181851
-0.03483338 0.1922039 0.065675266 0.006531627 -0.15676792 -0.12399319 0.18673089 -0.16086306
0.027825715 0.04657761 -0.015145441 -0.18426314 0.2053717 -0.2046435 0.015232251 -0.02215624
-0.101589836 -0.18525928 0.13467161 0.054992568 0.004341358 0.12566335 0.19708066 -0.21353023
00000000: 4c1c 1b3e 3a6a 883c 6bc0 22be 9ca9 083e
00000010: c673 823b 0028 4cbe 9b1a 89bc 4d81 27be
00000020: 3373 a5bd 26ae 21be c268 363e 7048 023d
00000030: aaf2 89bc 5c93 5cbc 1eab 4e3e 558c 4ebe
00000040: a926 993b a34d 37be 59b9 37be 091f c3bd
00000050: feb5 b9bd ed4c 02be ac8d 14be f3ae 93bd
00000060: 7dcc 97bc f819 3d3e f412 0b3e 9bf2 093c
00000070: 13b2 56be bb04 2e3e 70de 30be 79a6 113e
00000080: 571b 29be f2fe 9ebc 0f8a 54be 4efd 553d
00000090: 9c15 0ebe 3dfe 8b3c 58e7 213e e076 81bd
000000a0: 0fdd 4e3e b170 30be 1485 483e 2ef2 4dbe
000000b0: 0033 0b3d 2c3f c93d 92de 033e 9fb7 7c3d
000000c0: c5cd e53d e4f0 9bbd 2a35 b4bc b526 e3bc
000000d0: b2ed b2bd 63d8 fdbc 3607 e0bd 28ba 523e
000000e0: d27a cbbc 6281 34bd cc5d 2f3e 2afb 52be
000000f0: d1b9 1a3e 7c35 7abd 3bee cbbd 9784 a1bc
00000100: 13ef 343e 5c1d 2a3c e174 583e 2786 c73d
00000110: 3c8c eb3d 9f73 e43d 411e 563d 5553 33be
00000120: 521f 7ebd 652c 643d 8d54 1dbd c432 b1bd
00000130: b33c 25be c71e febb 3e4d afbd 35dd c0bd
00000140: 341e 013e 840a ae3c ebdb 6a3d 7125 19bd
00000150: 2473 f4bd 760e b83c 9c8e 7cbd 8564 403d
00000160: 394f 9bbd caab 9ebd 6f28 c8bd 8757 3b3d
00000170: 2f26 9ebd ffce ec3c 8003 373e d425 f23c
00000180: b0fd 5b3c 3639 9bbc dbbf 0c3e 7c80 533d
00000190: ef64 9fbb 9d0e d73d 433d db3d c4a3 123e
000001a0: 8808 913d e559 7c3d 77e9 5a3e 13f7 7ebd
000001b0: e102 b73c 163f 413e 5425 1ebe 929b b33d
000001c0: d5a3 083e 21ac 3dbe 7688 58be c95d debd
000001d0: c910 443d 67e2 783c 1e78 8bbd b5cb debd
000001e0: c1e7 bcbd 164f cebc 7e0e 7dbd 8ccb b03d
000001f0: 99f6 ae3d 2f77 50be 1b65 48be f117 f0bc
00000200: a839 513b f757 0c3e 6b59 373e 2783 083e
00000210: 4947 4dbe 089c 0bbe 19a5 99bd df5b aabd
00000220: 7563 47be 42d7 0dbe fdd4 afbd f191 2b3e
00000230: f831 f6bd 7b9d 113e 620e 90bd 7b6a 02be
00000240: 32e7 123e 7aab 60bd 080b 04be e713 d63d
00000250: 65bd c03d f63c 85bc abab e6bc 1a05 f13c
00000260: d9ba 103d 3fee c83d d035 ebbd 5498 fdbd
00000270: b2ee 9e3d cd95 e63d 4698 96bd e9e1 373e
00000280: 344b e3bd fffd 00be 2f54 0c3e 6830 ea3d
00000290: c33d 193e bf2f 7b3b d2a6 3f3e 2819 3d3e
000002a0: 7469 953d db7d c9bd ac58 55be 2eda 2cbe
000002b0: a24b bdbd ae46 9abd bf85 8ebd 7b04 e63d
000002c0: c80a 57be 9a75 083e 3662 993d 379a 023d
000002d0: 7f8c 54be 7274 a43d 67d2 25be e605 793d
000002e0: 4260 023e 2317 45be 22c8 50be bb60 033e
000002f0: 4719 8abd e7a4 2abe 0cee 42be f004 4abe
00000300: 2a5c 2bbd 6487 0c3e 48a6 133e d662 44be
00000310: 517f 143d 779a 0bbe b66b 05be 8c60 ee3d
00000320: 71c8 02be c9a8 533e 54f2 adbc d34b c03b
00000330: 4b20 c3bd b54d cbbd ce35 c9bd 843e 163e
00000340: b52b 05be 28f3 c23d ba25 00be 436e 9d3d
00000350: 302a 17be 99a6 033e 17b6 64bd 8a74 aabb
00000360: 8b54 2e3e ceb8 febd 9216 babd 9561 563e
00000370: 1611 63bd 5fae 55be cd78 18be fc5b f23d
00000380: 7532 2c3e 1264 2d3d 689f 8fbd 1bae 10bd
00000390: 5003 0a3e c3c1 213e 99d3 3b3e 580b bc3d
000003a0: 72ad 0ebd 19d1 443e c180 863d 4207 d63b
000003b0: c587 20be 24f0 fdbd 6236 3f3e 49b9 24be
000003c0: c1f2 e33c 2ac8 3e3d 9524 78bc 7aaf 3cbe
000003d0: f54c 523e 118e 51be b190 793c 0181 b5bc
000003e0: 550e d0bd 9cb4 3dbe 5be7 093e e33f 613d
000003f0: f341 8e3b e5ad 003e 83cf 493e aba7 5abe

actor.0.bias f4 [64]
0.15569893 -0.112451166 -0.13116042 0.07261798 -0.026683936 0.2090241 -0.18341231 0.16079392
-0.17211197 0.10558258 0.10456607 -0.09027041 0.10060347 0.032307938 -0.05264801 0.016297549
0.13678306 -0.09294657 -0.051321536 0.20975415 -0.047348864 -0.1436388 -0.12514763 0.035962466
-0.2041179 -0.072802775 -0.029203486 -0.15411803 -0.002288972 0.006849938 0.089335494 -0.099747546
0.037651762 -0.20701995 -0.06531708 -0.11726522 0.094481416 -0.010191899 -0.07895701 0.17774205
0.08743497 -0.100030944 -0.097568996 0.024360297 -0.14568225 0.007039358 0.18829253 -0.034219764
0.11122569 -0.117469385 0.020805245 0.10821651 0.18004479 -0.010484596 0.006989443 -0.028894918
-0.04651232 0.19705899 -0.20357472 0.13675101 0.16194989 0.08645887 -0.022753883 0.1797866
00000000: 8a6f 1f3e cc4c e6bd eb4e 06be bcb8 943d
00000010: 4598 dabc 6a0a 563e 70d0 3bbe 29a7 243e
00000020: 1f3e 30be ae3b d83d bc26 d63d b1df b8bd
00000030: 3109 ce3d 5455 043d 71a5 57bd 7082 853c
00000040: dc10 0c3e c55a bebd 8836 52bd cbc9 563e
00000050: e2f0 41bd 0d16 13be b326 00be 614d 133d
00000060: 4804 51be 9f19 95bd 263c efbc 1ed1 1dbe
00000070: 9402 16bb 7275 e03b 87f5 b63d 7148 ccbd
00000080: bc38 1a3d 0afd 53be f6c4 85bd bf28 f0bd
00000090: 797f c13d ecfb 26bc 36b4 a1bd 0302 363e
000000a0: 1b11 b33d 06dd ccbd 41d2 c7bd 3f8f c73c
000000b0: ba2d 15be 6aaa e63b c2cf 403e 062a 0cbd
000000c0: 4bca e33d ca93 f0bd c36f aa3c 9ea0 dd3d
000000d0: a95d 383e 95c7 2bbc b307 e53b 09b5 ecbc
000000e0: b483 3ebd d5c9 493e e475 50be 7508 0c3e
000000f0: 31d6 253e 5911 b13d 5a66 babc fa19 383e

actor.2.weight f4 [32, 64]
0.09118244 0.104094066 0.10504377 0.0498327 0.099708766 -0.05880924 -0.012419655 -0.0010218534
-0.12175696 0.020636732 -0.10253642 -0.104653016 0.032044794 -0.029060243 0.011380731 0.044590436
-0.0056519904 0.072342604 0.057062477 -0.054872036 0.021376522 0.045881793 -0.109440915 -0.004802107
-0.0332614 0.1176549 -0.08771291 -0.09697247 -0.0061794 -0.10153835 0.009746953 -0.063979335
-0.05885988 0.08463501 0.028752144 -0.047526594 0.0012203195 -0.08003282 0.014540362 0.023106715
-0.07936514 -0.093167216 0.034393243 0.0647409 0.02236441 -0.09578128 0.07747942 -0.047127422
0.080876015 -0.06097174 0.11096513 -0.11396861 -0.08695862 -0.086353816 -0.116937034 0.03616443
-0.08390489 -0.08901559 0.015900558 -0.059603892 -0.017760802 -0.12134615 0.04365165 0.05478299
-0.022361474 -0.06129945 0.09618561 -0.061022636 0.013278687 -0.082614295 -0.112162165 0.07268845
0.0012044614 0.0355167 -0.010858084 0.047065426 -0.032943558 0.06095466 -0.017045759 -0.05497397
0.11783952 0.12050703 0.09708513 0.05286485 -0.10130763 0.050917085 -0.091889925 -0.069629796
-0.043241415 0.09523398 -0.022802092 -0.09406132 0.110671416 -0.0376181 -0.056539185 -0.06730564
-0.122538954 -0.057465628 0.04846766 0.014002499 -0.04470328 -0.08519963 0.113108136 0.12552837
-0.08847019 -0.09422517 0.07145756 -0.089002006 0.045409765 -0.088851795 0.022172157 -0.03635739
0.056245927 -0.057072435 0.12050294 0.016037393 0.107139714 -0.107801884 -0.02735174 0.04477341
0.090540186 0.12065363 0.01805955 0.012396777 -0.05052321 0.08020131 -0.042778447 0.10816519
0.0830839 -0.10672021 -0.04680073 0.08040239 -0.008394279 -0.12186221 -0.07245972 -0.09326553
0.09545942 0.0891636 0.006427158 -0.08940136 -0.09040821 -0.018152922 0.042685416 -0.0693117
-0.085975476 -0.041302737 -0.00076424686 -0.003311641 -0.042160485 0.05739111 -0.11343263 -0.09876486
0.008161084 0.11890374 0.06788937 -0.108580284 -0.100674264 0.01333054 0.04332466 0.059235923
0.025063334 0.1038829 0.04548319 -0.12107477 0.019818112 -0.006266587 -0.10434958 0.0652057
0.045432754 0.06671595 0.0298654 0.013616947 -0.08226292 0.0047497908 -0.10958112 -0.04857303
0.11615591 -0.004611322 0.020270035 -0.09473542 0.095586196 0.10975555 0.017282397 0.09455791
-0.0025738114 0.08120093 0.07630043 0.016245808 0.05649878 0.053949393 0.020234752 0.029325087
-0.1053454 -0.0021216504 -0.056922723 0.05474983 -0.054093316 -0.073081546 0.09165807 0.07977519
-0.07132823 -0.0033715947 0.071177825 -0.110371314 -0.0021756275 0.09450015 -0.029724292 -0.05871218
-0.10198652 -0.0572716 -0.08777595 0.047526665 -0.008451882 -0.092911616 -0.0022528565 0.0481968
-0.11291252 -0.094773225 0.085180216 -0.121896915 -0.02107597 -0.09325083 -0.08109517 -0.074324585
0.07681328 -0.084074914 -0.078432225 -0.08792215 0.06668492 -0.011186303 0.081208654 0.12701958
0.018015457 -0.094037674 0.084320985 -0.11179788 0.10153986 -0.10120846 -0.112915345 -0.062607124
0.11806234 -0.025984662 -0.067872755 0.08725873 0.09828147 -0.07176199 0.108705744 -0.074358225
-0.024952233 -0.0584375 -0.053267118 -0.034811247 -0.0037050005 -0.008958435 0.06510885 0.0030605942
00000000: dcbd ba3d 452f d53d 3021 d73d 601d 4c3d
00000010: 1c34 cc3d f5e1 70bd cf7b 4bbc b6ef 85ba
00000020: b75b f9bd 5d0e a93c 9dfe d1bd 5254 d6bd
00000030: 6741 033d bf0f eebc 3f76 3a3c 76a4 363d
00000040: 5534 b9bb 5c28 943d 58ba 693d 80c1 60bd
00000050: d11d af3c 8cee 3b3d 8f22 e0bd fe5a 9dbb
00000060: 1b3d 08bd 0df5 f03d d3a2 b3bd 8199 c6bd
00000070: 907c cabb 57f3 cfbd afb1 1f3c 9907 83bd
00000080: 0f17 71bd 1f55 ad3d 9e89 eb3c 3fab 42bd
00000090: 21f3 9f3a 3fe8 a3bd b33a 6e3c 4b4a bd3c
000000a0: 318a a2bd 74ce bebd eedf 0c3d e196 843d
000000b0: 9135 b73c fa28 c4bd 88ad 9e3d af08 41bd
000000c0: 53a2 a53d 81bd 79bd b041 e33d 6068 e9bd
000000d0: 5c17 b2bd 45da b0bd af7c efbd 2721 143d
000000e0: 54d6 abbd ce4d b6bd e341 823c 3623 74bd
000000f0: 1a7f 91bc 5584 f8bd 13cc 323d 2164 603d
00000100: 692f b7bc 2215 7bbd f6fc c43d dff2 79bd
00000110: da8e 593c af31 a9bd 47b5 e5bd afdd 943d
00000120: 05df 9d3a f679 113d 1be6 31bc adc7 403d
00000130: d3ef 06bd 98ab 793d 8ca3 8bbc 632c 61bd
00000140: d955 f13d 64cc f63d 92d4 c63d d088 583d
00000150: 607a cfbd 6f8e 503d c930 bcbd 119a 8ebd
00000160: e91d 31bd 080a c33d 74cb babc 39a3 c0bd
00000170: b2a7 e23d 7015 1abd a295 67bd 8ad7 89bd
00000180: b4f5 fabd 1461 6bbd 0686 463d bd6a 653c
00000190: c91a 37bd 257d aebd 3da5 e73d 828a 003e
000001a0: dc2f b5bd 20f9 c0bd 5758 923d af46 b6bd
000001b0: 97ff 393d eef7 b5bd 62a2 b53c 7deb 14bd
000001c0: 2162 663d c9c4 69bd 3fca f63d da60 833c
000001d0: 116c db3d 3cc7 dcbd c210 e0bc 5364 373d
000001e0: 226d b93d 4019 f73d 9ff1 933c da1b 4b3c
000001f0: 6df1 4ebd 9640 a43d 7438 2fbd b685 dd3d
00000200: e427 aa3d 2090 dabd 1fb2 3fbd 02aa a43d
00000210: 2888 09bc e592 f9bd c365 94bd 0002 bfbd
00000220: 3a80 c33d 689b b63d e99a d23b 0f18 b7bd
00000230: f127 b9bd 70b5 94bc e7d6 2e3d 4bf3 8dbd
00000240: e913 b0bd 0f2d 29bd bd57 48ba 1e08 59bb
00000250: 79b0 2cbd f112 6b3d 5e4f e8bd 3b45 cabd
00000260: 11b6 053c ce83 f33d 9509 8b3d 575f debd
00000270: 4f2e cebd 5668 5a3c 3375 313d 5ea1 723d
00000280: 9f51 cd3c 8fc0 d43d 954c 3a3d 0df6 f7bd
00000290: 9859 a23c f157 cdbb 3cb5 d5bd 918a 853d
000002a0: b217 3a3d 5fa2 883d 49a8 f43c 9e19 5f3c
000002b0: 7679 a8bd 22a4 9b3b 116c e0bd 83f4 46bd
000002c0: 26e3 ed3d 931a 97bb 580d a63c a504 c2bd
000002d0: b2c2 c33d 85c7 e03d d093 8d3c 94a7 c13d
000002e0: 64ad 28bb ac4c a63d 6643 9c3d ee15 853c
000002f0: 446b 673d 0afa 5c3d 5ac3 a53c 2a3b f03c
00000300: 54bf d7bd 630b 0bbb cd27 69bd 5c41 603d
00000310: f490 5dbd c7ab 95bd 3ab7 bb3d 2d61 a33d
00000320: 8914 92bd f9f5 5cbb aec5 913d 5b0a e2bd
00000330: f994 0ebb 4b89 c13d 5c80 f3bc 2f7c 70bd
00000340: 4fde d0bd a095 6abd e1c3 b3bd 52ab 423d
00000350: c379 0abc 7248 bebd a9a4 13bb 026a 453d
00000360: ae3e e7bd 7718 c2bd f772 ae3d 17a5 f9bd
00000370: 83a7 acbc 4bfa bebd 3915 a6bd 7d37 98bd
00000380: 4850 9d3d 782f acbd 13a1 a0bd 8710 b4bd
00000390: 1a92 883d c146 37bc b950 a63d 6c11 023e
000003a0: 2795 933c d396 c0bd 7bb0 ac3d 49f6 e4bd
000003b0: 21f4 cf3d 6246 cfbd 2940 e7bd 2a38 80bd
000003c0: abca f13d c9dd d4bc df00 8bbd b4b4 b23d
000003d0: cc47 c93d f3f7 92bd 1ea1 de3d 2049 98bd
000003e0: a068 ccbc 295c 6fbd 9f2e 5abd 3d96 0ebd
000003f0: 98cf 72bb 66c6 12bc ca57 853d 4094 483b

actor.2.bias f4 [32]
0.12279477 0.10237643 -0.09809135 -0.054143757 -0.02093358 -0.057271823 0.12181991 -0.03773297
-0.05291144 -0.11195038 -0.07310872 0.05327487 0.079354905 0.06983112 0.06714271 0.03934738
-0.027810859 -0.028069036 0.050028134 0.032473985 -0.047378402 0.03801299 0.089721546 -0.0020296823
-0.104225434 0.013495186 -0.050071187 -0.0591792 -0.09446302 -0.06412839 -0.07422719 0.00788638
00000000: d37b fb3d bcaa d13d 1ee4 c8bd d8c5 5dbd
00000010: e67c abbc dc95 6abd b87c f93d e38d 1abd
00000020: abb9 58bd 3e46 e5bd 06ba 95bd c036 5a3d
00000030: d384 a23d 9e03 8f3d 1e82 893d b82a 213d
00000040: 99d3 e3bc 09f1 e5bc 4dea 4c3d 7103 053d
00000050: db0f 42bd 82b3 1b3d eebf b73d 6b04 05bb
00000060: 2574 d5bd ea1a 5d3c 7217 4dbd e465 72bd
00000070: d475 c1bd bf55 83bd 6d04 98bd e035 013c

actor.4.weight f4 [22, 32]
0.12119733 -0.08564035 -0.11212088 -0.029128952 -0.16618475 -0.14018889 0.020945424 -0.0077146646
-0.12825772 -0.13294062 -0.14680535 -0.15222438 -0.05171531 -0.11732852 -0.16911149 -0.08558747
0.090593494 0.089813285 -0.15666394 0.14531437 0.17258722 0.05604433 -0.13437983 -0.02017421
-0.103676975 0.03540698 -0.037470795 -0.13640039 -0.07812491 0.016703354 -0.16527312 -0.14610265
-0.14622378 0.05323586 -0.14139259 0.13457477 -0.004954447 -0.0210534 0.05026171 -0.101302534
0.11561904 -0.1222201 -0.05922794 -0.16505776 0.17755765 0.17525434 0.10408961 -0.03161128
-0.1739951 0.13956138 0.024298487 -0.018788466 -0.122641645 0.03464473 -0.00619037 -0.14385928
0.08468597 -0.15118106 0.07513108 0.13510862 0.0646969 -0.038491618 -0.019437501 0.14461087
-0.10749918 0.122856356 0.09451218 0.089002036 0.028886478 0.065459765 -0.024443949 0.11531656
0.030238908 -0.036797784 0.025700837 0.0023371833 -0.09782644 -0.03378096 -0.13544214 -0.06899115
-0.09892734 -0.09314296 -0.13977085 0.15591305 -0.13581477 -0.1731757 0.1252062 -0.11186656
0.10717826 -0.081797235 -0.14402477 0.17741649 0.12910482 -0.02659113 -0.066837855 0.012784819
0.13293512 -0.14764975 -0.11039273 -0.14878915 0.05872434 -0.13923098 -0.012225035 0.06858917
-0.14520937 0.016280217 -0.09063159 -0.06020079 0.074291624 0.17524542 -0.11227107 0.0033760343
0.10163627 -0.094617486 -0.13989282 -0.17423691 0.16388908 0.042667 0.008817832 0.12582639
-0.13348995 -0.15748096 -0.14538567 -0.09007748 -0.0707594 -0.15722835 -0.009110216 0.16460721
0.11071043 0.15285613 -0.15451512 0.039026443 0.11629104 0.17688912 -0.067081876 0.11330391
0.17482688 -0.005380279 0.14657332 0.16464786 0.06666531 0.0890634 -0.08034283 0.13711865
-0.08143302 0.11903358 -0.03219771 -0.17212656 0.111915104 -0.045742616 0.09483415 -0.08210205
0.015461015 0.07554277 0.06688656 0.08683664 0.0221475 -0.05079799 -0.0012137509 -0.102745
0.13184191 0.15878129 0.12254634 0.103165895 -0.07916224 -0.045886893 0.097091176 -0.0066996845
-0.13990408 0.1105998 0.08398963 -0.11369456 0.14735292 -0.12574129 0.094074816 -0.049595334
0.019148985 -0.1724821 -0.0936945 0.05818588 -0.060640533 0.16959669 -0.08340228 -0.08642428
0.05834573 0.04511292 0.049926624 0.14640395 0.11694091 0.06284755 -0.1591291 0.02864756
0.019228522 -0.009035039 -0.09831197 0.018634178 -0.05278587 -0.162541 -0.07719844 0.051895577
0.06636381 -0.06259079 -0.084720485 -0.15067841 0.15257134 0.112986535 -0.058468964 0.12985131
-0.10344488 -0.051664624 0.14531736 0.123929776 -0.063370496 -0.11941495 -0.14281921 0.03094003
0.1578442 -0.14738107 0.072609134 -0.1286289 -0.13513894 -0.15238574 0.062218837 -0.11400475
0.010444241 -0.099807955 -0.105948694 0.094151184 -0.17582008 -0.08979942 -0.039929356 0.113946214
0.0061395937 0.047754124 -0.16595437 -0.02917551 0.004039039 -0.12497701 0.030646106 0.09910906
0.111935504 0.031320047 0.12648843 0.14888579 -0.06721791 0.032736287 0.08568262 -0.06688245
0.027579539 0.042916007 0.15057805 0.17136414 0.14875692 0.029830469 -0.10197616 -0.1019328
00000000: 4e36 f83d 3564 afbd a29f e5bd d79f eebc
00000010: 562c 2abe ad8d 0fbe bd95 ab3c 4ccb fcbb
00000020: fe55 03be 9621 08be 2454 16be b5e0 1bbe
00000030: 6fd3 53bd ef49 f0bd 902b 2dbe 7c48 afbd
00000040: 1589 b93d 07f0 b73d 836c 20be 4acd 143e
00000050: b4ba 303e bd8e 653d de9a 09be 6344 a5bc
00000060: 9854 d4bd e906 113d fa7a 19bd 8bac 0bbe
00000070: f4ff 9fbd 79d5 883c 5b3d 29be ef9b 15be
00000080: b0bb 15be d80d 5a3d 38c9 10be f8cd 093e
00000090: ea58 a2bb 2e78 acbc 39df 4d3d b477 cfbd
000000a0: adc9 ec3d 884e fabd ff98 72bd e704 29be
000000b0: acd1 353e e075 333e ef2c d53d d47a 01bd
000000c0: c62b 32be 2ee9 0e3e 9f0d c73c 45ea 99bc
000000d0: 8b2b fbbd a2e7 0d3d 96d8 cabb d94f 13be
000000e0: d66f ad3d 35cf 1abe 53de 993d ea59 0a3e
000000f0: cf7f 843d 63a9 1dbd 653b 9fbc df14 143e
00000100: 8828 dcbd 1d9c fb3d 9a8f c13d b346 b63d
00000110: 56a3 ec3c c50f 863d ad3e c8bc 172b ec3d
00000120: 96b7 f73c 46b9 16bd 908a d23c 6e2b 193b
00000130: 3b59 c8bd e75d 0abd 58b1 0abe 3b4b 8dbd
00000140: 6b9a cabd bcc1 bebd 1720 0fbe aca7 1f3e
00000150: 0713 0bbe f854 31be 0e36 003e 4c1a e5bd
00000160: 4780 db3d 4f85 a7bd 3b7b 13be abac 353e
00000170: 0e34 043e a4d5 d9bc 49e2 88bd 6b77 513c
00000180: 2520 083e 7f31 17be 9515 e2bd 2f5c 18be
00000190: ef88 703d 9192 0ebe 834b 48bc 7b78 8c3d
000001a0: c4b1 14be 175e 853c 0e9d b9bd 1b95 76bd
000001b0: 3526 983d 8973 333e 60ee e5bd 7540 5d3b
000001c0: ad26 d03d d0c6 c1bd 1040 0fbe 296b 32be
000001d0: 8ad2 273e 98c3 2e3d ab78 103c a2d8 003e
000001e0: 97b1 08be b042 21be fbdf 14be 8b7a b8bd
000001f0: 4eea 90bd 7800 21be 0443 15bc cb8e 283e
00000200: 26bc e23d 5186 1c3e 3639 1ebe 31da 1f3d
00000210: ff29 ee3d 6c22 353e 3962 89bd e10b e83d
00000220: d105 333e 0d4d b0bb 5117 163e 7399 283e
00000230: d287 883d df66 b63d c88a a4bd d568 0c3e
00000240: 5bc6 a6bd e1c7 f33d bfe1 03bd f241 30be
00000250: bf33 e53d 9c5c 3bbd 6838 c23d 1f25 a8bd
00000260: 3250 7d3c 2bb6 9a3d d2fb 883d 69d7 b13d
00000270: ad6e b53c 8e11 50bd b916 9fba f86b d2bd
00000280: 9101 073e 9097 223e 93f9 fa3d a448 d33d
00000290: d01f a2bd e5f3 3bbd bdd7 c63d 0789 dbbb
000002a0: 0443 0fbe 2682 e23d c102 ac3d b2d8 e8bd
000002b0: afe3 163e 53c2 00be 4caa c03d 7a24 4bbd
000002c0: 55de 9c3c 269f 30be e7e2 bfbd 5154 6e3d
000002d0: 3562 78bd c1aa 2d3e d1ce aabd 37ff b0bd
000002e0: effb 6e3d 53c8 383d dc7f 4c3d ebea 153e
000002f0: b77e ef3d 37b6 803d bdf2 22be 4aae ea3c
00000300: 2285 9d3c b307 14bc c957 c9bd b4a6 983c
00000310: ff35 58bd 2671 26be 371a 9ebd 7590 543d
00000320: c0e9 873d 9a2f 80bd ef81 adbd 714b 1abe
00000330: a93b 1c3e 7c65 e73d 277d 6fbd bef7 043e
00000340: e9da d3bd 499e 53bd 13ce 143e e5ce fd3d
00000350: 64c8 81bd d38f f4bd 333f 12be f275 fd3c
00000360: e9a1 213e 10eb 16be 19b4 943d 4bb7 03be
00000370: dd61 0abe 020b 1cbe 2ed9 7e3d 537b e9bd
00000380: 521e 2b3c 1d68 ccbd a1fb d8bd 56d2 c03d
00000390: 2e0a 34be c2e8 b7bd f78c 23bd a25c e93d
000003a0: a52e c93b d499 433d f1ef 29be 7b01 efbc
000003b0: ea59 843b f2f3 ffbd 8b0d fb3c b1f9 ca3d
000003c0: 713e e53d 7349 003d 2f86 013e 8475 183e
000003d0: 8ba9 89bd 7c16 063d 5f7a af3d aaf9 88bd
000003e0: 7cee e13c b2c8 2f3d 2231 1a3e 157a 2f3e
000003f0: bc53 183e 075f f43c e1d8 d0bd 25c2 d0bd

actor.4.bias f4 [22]
-0.03400219 -0.118222505 -0.0002001035 -0.15965696 -0.07593334 -0.10587298 0.16028677 -0.14840406
-0.11965133 0.09738785 0.10451385 0.06881207 -0.025743604 0.047746904 0.12856427 0.077442676
-0.029563105 -0.034978665 -0.10510015 -0.0043940395 -0.10822197 0.17314392
00000000: e145 0bbd a41e f2bd e0d2 51b9 1d7d 23be
00000010: f082 9bbd efd3 d8bd 3722 243e 3cf7 17be
00000020: c20b f5bd 4873 c73d 5b0b d63d 58ed 8c3d
00000030: 40e4 d2bc 4292 433d 5aa6 033e 449a 9e3d
00000040: 532e f2bc ca45 0fbd bf3e d7bd e0fb 8fbb
00000050: 7ba3 ddbd a44c 313e

critic.0.weight f4 [64, 22]
0.18561798 0.13072248 -0.047745503 -0.093610935 0.15165555 0.17635496 -0.12550429 0.20163825
9.781381e-05 0.09014059 0.07572703 -0.02605538 -0.10530733 -0.0023057307 -0.17113736 0.19148622
0.03044426 -0.12801912 0.07744552 -0.022358797 0.045851707 -0.020117862 -0.04407309 -0.04387292
0.119243205 0.2133577 -0.096851006 -0.058806926 -0.10266236 -0.079466075 0.10231193 0.06001608
0.039563924 0.16551511 0.14883152 -0.12881063 -0.03177744 -0.19276324 -0.11068065 0.10665294
-0.13760112 0.18803895 0.0771365 0.143293 -0.20550452 0.1434969 -0.20371631 -0.19188146
0.051141687 -0.022790609 0.1315122 0.10030841 0.02463818 0.02125054 0.06742029 0.12790439
-0.15188095 0.1363387 -0.069879375 0.13678427 0.0015905336 -0.12942776 -0.18203856 0.13936462
-0.15825653 0.1351755 -0.15492295 0.07871456 -0.1117365 0.016672341 -0.032714438 -0.12952943
0.01644538 -0.1935869 -0.092393205 0.018598164 0.070497684 0.12653174 0.11249264 0.15443024
-0.18342787 -0.2124437 0.123792574 0.18380807 -0.20418964 0.15208809 -0.060485575 0.06210219
-0.14865015 0.11506189 0.020536259 0.21017994 -0.13690963 0.15426542 0.21264285 -0.12639183
0.027566936 -0.063886456 0.21375754 -0.11998928 -0.034776498 -0.2016927 -0.025279822 -0.2032961
-0.16754891 -0.0742687 -0.080106415 -0.18951821 -0.1190037 0.05372185 -0.011968015 0.08897853
0.02988955 -0.024210695 0.048348345 0.09535149 0.012100669 -0.13133128 -0.03972384 0.19694883
-0.06330348 0.06203019 -0.15251017 0.19862358 -0.21365264 0.16031364 0.1614833 -0.13192888
-0.027771395 0.01044333 -0.17687817 -0.13791159 -0.20511785 -0.1627658 -0.094281875 -0.14822367
-0.18131626 0.103539124 -0.010147813 0.16049339 0.13562775 -0.069213 -0.0025617096 0.19738914
0.117502436 -0.16967764 -0.016240248 0.0052216323 0.1797865 -0.17897916 -0.034873664 -0.1890304
0.14602605 0.17767169 0.1778478 -0.12781146 -0.15952654 0.10247933 -0.1848843 0.09443457
-0.085639425 0.04149315 -0.15571286 -0.16361047 -0.010619243 -0.11608102 0.16372152 0.046321552
0.101345636 0.1923525 0.18953618 -0.2053811 -0.059192233 0.05410998 0.14058563 -0.18308893
0.19527641 0.092579 0.11025434 0.1765425 -0.09229271 0.14581178 0.03573143 0.010619509
-0.1009564 0.066406086 0.038466647 -0.0181836 -0.09731975 -0.04897845 -0.15708992 0.16675258
0.09480939 -0.0010427783 -0.11909109 -0.050303057 -0.10152492 0.10025439 -0.2101286 -0.0665181
-0.09421623 -0.10845248 0.19242698 0.058773722 0.11744357 -0.0290036 -0.12278 -0.09502307
-0.12943824 0.026900232 0.085832104 -0.058316108 -0.13272622 0.012956796 0.044957466 -0.16712956
0.19581813 -0.07826926 0.1553467 -0.16836587 -0.13514334 0.0005455013 0.08857025 0.089134045
0.11220671 0.083425276 -0.16836688 0.13595246 -0.13730785 -0.144 -0.20612574 0.044982284
0.19353199 -0.032481167 -0.113863744 -0.17224962 0.20683952 0.08811491 -0.1993561 0.10655285
0.18166451 -0.19692795 0.11504018 -0.1748 -0.21291885 -0.13600348 0.08588813 0.16743472
0.19764774 0.17150265 0.11181111 -0.15409559 -0.11741903 0.087179475 0.18854952 -0.11187967
00000000: a412 3e3e 1ddc 053e ca90 43bd 17b7 bfbd
00000010: 984b 1b3e 6596 343e 3284 00be 427a 4e3e
00000020: 6421 cd38 a19b b83d c616 9b3d 1872 d5bc
00000030: 5fab d7bd be1b 17bb a23e 2fbe f714 443e
00000040: 3e66 f93c 7217 03be c29b 9e3d cc29 b7bc
00000050: 00cf 3b3d 37ce a4bc fc85 34bd 17b4 33bd
00000060: c835 f43d 717a 5a3e d259 c6bd 88df 70bd
00000070: a540 d2bd 1cbf a2bd eb88 d13d 6cd3 753d
00000080: c80d 223d cb7c 293e 4a67 183e efe6 03be
00000090: 1029 02bd ba63 45be 89ac e2bd db6c da3d
000000a0: 4fe7 0cbe 488d 403e bef9 9d3d 66bb 123e
000000b0: c76f 52be daf0 123e 029b 50be 937c 44be
000000c0: f279 513d 5fb3 babc 22ab 063e 7f6e cd3d
000000d0: 02d6 c93c 9d15 ae3c a613 8a3d 5ef9 023e
000000e0: ae86 1bbe 5f9c 0b3e eb1c 8fbd 2d11 0c3e
000000f0: 7479 d03a b688 04be 5168 3abe 99b5 0e3e
00000100: 000e 22be 726b 0a3e 1fa4 1ebe 1935 a13d
00000110: 1bd6 e4bd 6f94 883c 93ff 05bd 5da3 04be
00000120: 76b8 863c a53b 46be a638 bdbd 2d5b 983c
00000130: 1761 903d 8991 013e 8b62 e63d f622 1e3e
00000140: 84d4 3bbe d78a 59be f686 fd3d 2f38 3c3e
00000150: 1717 51be fbbc 1b3e b9bf 77bd de5e 7e3d
00000160: bf37 18be 91a5 eb3d a83b a83c 6939 573e
00000170: 0a32 0cbe c1f7 1d3e 0cbf 593e dc6c 01be
00000180: 0ed4 e13c e7d6 82bd 42e3 5a3e f1bc f5bd
00000190: cd71 0ebd 8888 4ebe a117 cfbc da2c 50be
000001a0: f191 2bbe 301a 98bd d50e a4bd 1011 42be
000001b0: 36b8 f3bd 710b 5c3d 7e15 44bc 603a b63d
000001c0: eeda f43c 8255 c6bc ea08 463d a447 c33d
000001d0: e241 463c b57b 06be 77b5 22bd f4ac 493e
000001e0: 41a5 81bd 5e13 7e3d a02b 1cbe fb63 4b3e
000001f0: c2c7 5abe 4229 243e e15b 253e 5d18 07be
00000200: d680 e3bc 801a 2b3c 8d1f 35be b238 0dbe
00000210: 6a0a 52be 14ac 26be db16 c1bd f2c7 17be
00000220: f8aa 39be 520c d43d 0343 26bc 6158 243e
00000230: 00e2 0a3e 8cbf 8dbd 5be2 27bb 6120 4a3e
00000240: 1ea5 f03d fabf 2dbe 450a 85bc 3a1a ab3b
00000250: f419 383e 5046 37be b0d7 0ebd 2f91 41be
00000260: da87 153e 91ef 353e bc1d 363e 02e1 02be
00000270: ed5a 23be afe0 d13d 4f52 3dbe e966 c13d
00000280: b963 afbd b9f4 293d 3173 1fbe 8189 27be
00000290: 55fc 2dbc e3bb edbd 9da6 273e abbb 3d3d
000002a0: 4d8e cf3d 0ef8 443e c615 423e 6c4f 52be
000002b0: 8e73 72bd 6da2 5d3d aef5 0f3e aa7b 3bbe
000002c0: 8af6 473e 0f9a bd3d 07cd e13d 8fc7 343e
000002d0: f603 bdbd af4f 153e 1f5b 123d 73fd 2d3c
000002e0: 3bc2 cebd eaff 873d 348f 1d3d c6f5 94bc
000002f0: 944f c7bd a19d 48bd 2edc 20be 30c1 2a3e
00000300: 6d2b c23d d5ad 88ba 08e6 f3bd 940a 4ebd
00000310: 4cec cfbd 2c52 cd3d f42b 57be a43a 88bd
00000320: 70f4 c0bd 551c debd 940b 453e b7bc 703d
00000330: 4186 f03d f598 edbc 1574 fbbd 759b c2bd
00000340: 758b 04be e05d dc3c bec8 af3d dfdc 6ebd
00000350: 62e9 07be be48 543c 5225 383d 0324 2bbe
00000360: 8c84 483e a24b a0bd 3513 1f3e 1a68 2cbe
00000370: 0463 0abe f9ff 0e3a 5264 b53d e98b b63d
00000380: a2cc e53d dfda aa3d 5e68 2cbe 1f37 0b3e
00000390: 6e9a 0cbe bc74 13be a012 53be 583f 383d
000003a0: 402d 463e f90a 05bd 6531 e9bd 3462 30be
000003b0: bdcd 533e 9775 b43d 0124 4cbe 6138 da3d
000003c0: 4306 3a3e 7ba7 49be 309a eb3d c5fe 32be
000003d0: 6607 5abe 7f44 0bbe 1ee6 af3d 0274 2b3e
000003e0: 2b64 4a3e 649e 2f3e 39fd e43d 3ccb 1dbe
000003f0: 6379 f0bd 278b b23d 2013 413e 2b21 e5bd

critic.0.bias f4 [64]
0.033598427 0.18516435 0.05306871 -0.17902021 0.0024431339 0.060670815 -0.1981982 0.14027338
-0.17142287 0.12407795 -0.18926327 0.050038204 -0.057918083 -0.20409581 0.1746089 -0.006341099
0.008384325 -0.12781528 0.020635882 -0.045872465 0.1940197 -0.03783722 -0.046173107 0.09678628
-0.06885037 -0.015289681 0.00072785415 0.077231474 -0.09059398 -0.06224732 0.019664682 0.05979964
-0.18380864 -0.16071638 0.08479876 -0.11646417 0.015680796 -0.110211946 -0.055911805 -0.13544618
-0.1519585 0.19623931 -0.20307997 -0.12138433 0.0789813 0.08033986 -0.0027171068 -0.034296885
0.20990281 0.19765593 0.021492489 -0.0744549 -0.010093236 0.07826194 0.15667634 0.16019817
-0.17973228 0.14650713 0.18615638 0.18377882 0.04179967 -0.0067936936 0.07894168 0.078436874
00000000: 819e 093d b99b 3d3e 935e 593d 1351 37be
00000010: fc1c 203b f681 783d 78f4 4abe d3a3 0f3e
00000020: 7a89 2fbe 951c fe3d 3bce 41be dcf4 4c3d
00000030: 833b 6dbd 7efe 50be adcc 323e fec8 cfbb
00000040: 685e 093c 02e2 02be 950c a93c c4e4 3bbd
00000050: 1aad 463e 33fb 1abd 0320 3dbd e337 c63d
00000060: 6c01 8dbd 9281 7abc 77cd 3e3a 892b 9e3d
00000070: 5689 b9bd 0cf7 7ebd d417 a13c 78f0 743d
00000080: 5538 3cbe d692 24be f9aa ad3d c484 eebd
00000090: 0375 803c cdb6 e1bd c703 65bd 67b2 0abe
000000a0: 029b 1bbe f5f2 483e 32f4 4fbe 5998 f8bd
000000b0: f3c0 a13d 3989 a43d 7d11 32bb e47a 0cbd
000000c0: c3f0 563e 5166 4a3e 0411 b03c d07b 98bd
000000d0: 1a5e 25bc cc47 a03d c36f 203e fd0a 243e
000000e0: bd0b 38be f705 163e c79f 3e3e 8430 3c3e
000000f0: 2136 2b3d a29d debb 2dac a13d 83a3 a03d

critic.2.weight f4 [32, 64]
-0.07149287 0.02072789 -0.11305626 -0.094122946 0.046171226 -0.056591336 0.12655127 -0.06763737
-0.08098451 0.037632946 -0.099110246 0.08990227 0.1159654 -0.10496593 -0.009844214 -0.019710837
-0.06306291 0.077164374 -0.039616283 0.049225144 0.059056386 -0.03128774 -0.11086445 0.10770949
0.015982583 -0.07235473 0.08199595 -0.0072332746 -0.08828556 0.12106508 -0.11053045 0.056517646
0.045143414 -0.08425538 -0.020092884 -0.10165692 -0.0026562659 0.11572341 -0.0980036 0.0038368532
0.10080892 -0.10664781 0.00811497 -0.038593203 0.037436526 -0.04483655 0.089089006 -0.105070196
0.10559886 -0.05792307 -0.10331884 -0.018391902 0.117003426 -0.00012078663 -0.060901396 -0.08145773
0.057204593 -0.039686684 0.032505073 0.08682267 0.048932113 -0.05289599 0.018872513 0.022044064
-0.103372596 0.023501903 -0.088223055 -0.08955217 -0.11137961 0.105296075 -0.006037236 -0.014683161
0.06601476 -0.04025089 -0.112054095 -0.060902312 0.06589194 0.01168568 0.059547607 -0.0077291243
-0.03103812 -0.048743848 -0.058653053 -0.09424567 -0.10142989 0.073991224 0.07100094 0.07099285
0.021772202 -0.08243311 -0.12057708 -0.11565418 -0.018269729 0.0018088648 -0.064559415 -0.062207647
0.017436435 0.10929317 0.103873804 -0.021083841 0.10246684 -0.05661192 0.042116713 0.08981168
0.11332787 0.03305458 0.06632078 0.037777703 0.0014186916 0.013698104 0.034624264 -0.00030546254
0.07926705 0.024219882 0.0075835586 0.08771987 0.048892114 -0.09554909 -0.041675784 -0.04433882
0.0015698832 -0.012898803 -0.11940276 -0.089858435 -0.011906749 0.071587995 0.09006586 -0.0076678907
0.033674918 0.119015 0.041507494 0.01105953 -0.0239905 0.014483075 -0.095749825 0.02907591
0.039897375 -0.057121426 0.1010944 0.0086042965 -0.042596333 -0.088966094 -0.08686415 0.0020222778
0.04142207 0.019811321 -0.099878095 -0.111830406 -0.10715081 0.07180401 -0.08003651 -0.075656444
-0.014457441 0.039770413 0.10886898 0.08690572 -0.02428994 -0.0798011 -0.0683234 0.023161381
0.00044324252 0.013575532 0.09000112 0.055514462 -0.07896686 0.04062849 0.036134016 0.032153714
-0.09594416 -0.09185336 0.054901242 -0.08465674 -0.049082603 0.030513747 0.06757754 -0.059681382
0.059996217 0.03089543 0.12016081 0.041330915 0.09816047 0.11498372 0.062039383 0.040333156
-0.1022282 -0.1255187 -0.06630246 -0.07275468 -0.035251208 -0.048009206 -0.011120522 0.0046463325
0.07680966 0.10020696 -0.028632652 0.047697965 -0.014894914 -0.03131872 0.106222376 -0.11078883
0.09139823 -0.022903252 0.047589116 0.088120185 -0.11494677 0.021282021 -0.03238218 0.06401844
0.026845543 0.0142604215 0.06399088 -0.11518911 0.028884424 -0.055239152 0.039465003 0.06555654
-0.10040562 0.03970755 -0.008885658 -0.109464176 0.039214745 -0.015784428 -0.04048512 -0.027453754
-0.047326986 -0.072112784 -0.05120813 0.019689772 -0.06868251 0.04937297 -0.01974868 0.05005049
-0.054586116 -0.00023718853 0.10386861 0.009145805 0.087617084 -0.0045184176 -0.07238682 0.04731843
0.07760699 -0.0067588193 0.10795692 0.08473917 -0.0661948 -0.10501695 0.11786875 -0.07236605
0.0075229034 -0.042307403 -0.025318393 0.0036175891 0.022940645 0.09292227 -0.058228355 -0.066808626
00000000: db6a 92bd 89cd a93c 0a8a e7bd 88c3 c0bd
00000010: 0a1e 3d3d 51cc 67bd a896 013e 7685 8abd
00000020: 35db a5bd 0125 1a3d 50fa cabd ae1e b83d
00000030: 457f ed3d 61f8 d6bd a049 21bc 9f78 a1bc
00000040: 2127 81bd 5b08 9e3d af44 22bd 4ea0 493d
00000050: 1ce5 713d 9327 00bd e70c e3bd cb96 dc3d
00000060: e8ed 823c b72e 94bd 7eed a73d 1b05 edbb
00000070: 0fcf b4bd f8f0 f73d ca5d e2bd 0c7f 673d
00000080: 4de8 383d 168e acbd d599 a4bc 8131 d0bd
00000090: bf14 2ebb 6500 ed3d 1db6 c8bd b773 7b3b
000000a0: e874 ce3d 2b6a dabd a7f4 043c e813 1ebd
000000b0: 0b57 193d 88a6 37bd 4c74 b63d 0b2f d7bd
000000c0: 3744 d83d be40 6dbd d498 d3bd 9daa 96bc
000000d0: 7e9f ef3d d44e fdb8 be73 79bd 4fd3 a6bd
000000e0: 5d4f 6a3d 818e 22bd 0a24 053d 16d0 b13d
000000f0: 0a6d 483d 77a9 58bd 879a 9a3c c195 b43c
00000100: 03b5 d3bd 1087 c03c 4aae b4bd 2167 b7bd
00000110: fe1a e4bd 78a5 d73d 02d4 c5bb a491 70bc
00000120: bf32 873d 1ede 24bd 9e7c e5bd b474 79bd
00000130: 5af2 863d 4b75 3f3c 31e8 733d 9844 fdbb
00000140: a843 febc a1a7 47bd 2f3e 70bd e003 c1bd
00000150: 79ba cfbd b688 973d f168 913d b364 913d
00000160: 9e5b b23c b1d2 a8bd 1ef1 f6bd 19dc ecbd
00000170: 66aa 95bc 6e17 ed3a ba37 84bd 72cd 7ebd
00000180: dbd6 8e3c 19d5 df3d cabb d43d 05b8 acbc
00000190: 22da d13d e7e1 67bd 9382 2c3d 30ef b73d
000001a0: 7118 e83d 3d64 073d 30d3 873d cbbc 1a3d
000001b0: 64f3 b93a 036e 603c 2cd2 0d3d 7d26 a0b9
000001c0: c356 a23d c668 c63c 807f f83b 7aa6 b33d
000001d0: 1943 483d 3eaf c3bd 3ab4 2abd 9f9c 35bd
000001e0: 8ac4 cd3a 8055 53bc 6f89 f4bd b307 b8bd
000001f0: 8614 43bc ba9c 923d 7374 b83d ee42 fbbb
00000200: b6ee 093d 23be f33d c303 2a3d 0833 353c
00000210: ba87 c4bc 6b4a 6d3c 7c18 c4bd 9a30 ee3c
00000220: 6e6b 233d 28f8 69bd 950a cf3d 09f9 0c3c
00000230: 7e79 2ebd db33 b6bd d5e5 b1bd 3188 043b
00000240: 30aa 293d 5a4b a23c e38c ccbd 5707 e5bd
00000250: e271 dbbd fb0d 933d 2fea a3bd c4f1 9abd
00000260: e7de 6cbc 4de6 223d b3f6 de3d a0fb b13d
00000270: b2fb c6bc c26e a3bd 24ed 8bbd f0bc bd3c
00000280: 0163 e839 e86b 5e3c 8252 b83d 2263 633d
00000290: 61b9 a1bd 0f6a 263d 4301 143d 9db3 033d
000002a0: 5f7e c4bd 9d1d bcbd 20e0 603d 8360 adbd
000002b0: d70a 49bd f7f7 f93c 1866 8a3d 7774 74bd
000002c0: 98be 753d 6a18 fd3c df16 f63d 9b4a 293d
000002d0: 5b08 c93d 967c eb3d 021d 7e3d 6134 253d
000002e0: 055d d1bd f987 00be 96c9 87bd 6800 95bd
000002f0: 9263 10bd 4da5 44bd da32 36bc 4340 983b
00000300: 624e 9d3d 4f39 cd3d 068f eabc f15e 433d
00000310: cc09 74bc 0f48 00bd 1e8b d93d 41e5 e2bd
00000320: ff2e bb3d 9a9f bbbc ceec 423d 5b78 b43d
00000330: 3669 ebbd a257 ae3c 2da3 04bd 1a1c 833d
00000340: 2feb db3c 8ba4 693c a70d 833d 45e8 ebbd
00000350: 079f ec3c 7342 62bd 0ea6 213d 8242 863d
00000360: 76a1 cdbd 62a4 223d 2795 11bc c12e e0bd
00000370: a49f 203d 584e 81bc bad3 25bd b2e6 e0bc
00000380: f1d9 41bd deaf 93bd 9ebf 51bd 724c a13c
00000390: 6aa9 8cbd 503b 4a3d fcc7 a1bc be01 4d3d
000003a0: b195 5fbd d0b5 78b9 11b9 d43d 49d8 153c
000003b0: 9670 b33d 3c0f 94bb 8b3f 94bd f8d0 413d
000003c0: 6af0 9e3d 1679 ddbb 8518 dd3d bb8b ad3d
000003d0: 2491 87bd 2013 d7bd 2c65 f13d a734 94bd
000003e0: b082 f63b 874a 2dbd 8568 cfbc 1315 6d3b
000003f0: 05ee bb3c 084e be3d db80 6ebd f6d2 88bd

critic.2.bias f4 [32]
-0.058890045 -0.05775649 -0.031244338 -0.059267584 0.012334025 -0.11874582 -0.052863378 0.0022610673
-0.012640034 -0.029039372 -0.062094644 -0.04478477 0.08979895 0.09589857 0.12147935 0.0098328255
-0.074176416 -0.10102832 0.041078474 0.0003494495 0.067380704 0.03588439 -0.08640088 -0.035896484
-0.11057748 0.01198652 -0.058461085 -0.10235486 0.08686192 0.11412832 -0.105981186 -0.09679878
00000000: b036 71bd 1292 6cbd 20f4 ffbc 91c2 72bd
00000010: a714 4a3c 0231 f3bd 4587 58bd 6a2e 143b
00000020: 2518 4fbc fae3 edbc f456 7ebd 3c70 37bd
00000030: 83e8 b73d 7866 c43d 2aca f83d dc19 213c
00000040: cee9 97bd f0e7 cebd e741 283d 5136 b739
00000050: e5fe 893d 83fb 123d f2f2 b0bd 3108 13bd
00000060: 7276 e2bd 1c63 443c e474 6fbd 6d9f d1bd
00000070: aae4 b13d 1cbc e93d aa0c d9bd 703e c6bd

critic.4.weight f4 [1, 32]
0.1316891 0.08606844 -0.13358375 0.08980502 0.056451786 0.03924662 -0.1201871 -0.029742887
-0.04588252 0.014403331 -0.00715006 -0.043658152 -0.031312875 0.0117927315 0.037343252 0.08992617
0.04022591 -0.11883774 -0.1276435 0.12962256 0.07064485 -0.16386636 0.09930823 0.14347683
0.09668757 0.09165862 0.033420492 0.15315886 -0.09586617 0.08864629 -0.06789372 -0.0983688
00000000: 82d9 063e a644 b03d 2eca 08be b2eb b73d
00000010: fd39 673d 10c1 203d a724 f6bd 5ba7 f3bc
00000020: 4fef 3bbd f3fb 6b3c 0d4b eabb e4d2 32bd
00000030: ee41 00bd 4d36 413c 3df5 183d 362b b83d
00000040: ecc3 243d 3361 f3bd fab4 02be c7bb 043e
00000050: 3fae 903d 95cc 27be 1d62 cb3d 97eb 123e
00000060: 2204 c63d 84b7 bb3d ede3 083d add5 1c3e
00000070: 7c55 c4bd 308c b53d dd0b 8bbd 9575 c9bd
